TFLiteInference/app/src/main/res/raw/model_iris.tflite (tflite, 2028 bytes, 3 tensors)

sequential/dense_1/MatMul;sequential/dense_1/BiasAdd f4 [3]
000000 34 f5 38 3f 06 14 1c 3f 31 55 e2 bf
       0.7224915 0.60968053 -1.7682248

sequential/dense/MatMul f4 [16, 4]
000000 ce ad ea be 29 d4 fc be e8 7b 76 3f de 77 3f 3e
       -0.45835727 -0.49380615 0.96282816 0.1869807
000010 80 f1 a3 3e 66 99 6c 3e cc 07 b1 be 48 74 30 bd
       0.32020187 0.23105392 -0.3457626 -0.043079644
000020 df 57 2f bd 20 ad 06 bf ff 55 b7 3e ad e2 17 3e
       -0.04280841 -0.5260792 0.35807797 0.14832564
000030 03 23 66 bd 57 52 78 3e 41 fd a4 be 1d 03 95 3e
       -0.056185734 0.2425016 -0.32224467 0.29103938
000040 c9 da 4d 3d 09 19 be be 76 61 ee 3e d9 fd 17 be
       0.050257478 -0.37128475 0.46558732 -0.14842929
000050 28 a2 ba 3e cd 03 e4 3e ca 23 99 bf 7d 59 0e bf
       0.3645184 0.4453415 -1.1964047 -0.556053
000060 98 6a 76 be 24 21 61 be 28 e9 0d 3e 82 7b 5b 3e
       -0.240641 -0.21985298 0.13858473 0.21433833
000070 22 7e d4 3e 5a 8f 01 bb 21 6b 53 3d fb 4e 7a 3b
       0.41502482 -0.0019769282 0.051615838 0.0038194049
000080 d5 94 45 be f5 0e aa 3e 53 a4 5b be 8c 02 d7 3e
       -0.19295056 0.33214536 -0.21449403 0.4199413
000090 cd f0 a3 be 18 8c e9 3e 11 b1 a2 3c 12 13 cf bd
       -0.32019654 0.45614696 0.019859822 -0.10111059
0000a0 1c 2a 00 bf 5e 0e 16 bf 0a 55 92 3e ea a7 07 bd
       -0.50064254 -0.5861567 0.28580505 -0.03311912
0000b0 25 ad 3f bf f6 a9 ba be 2e e5 84 3f a1 8a 88 3f
       -0.7487357 -0.36457795 1.038244 1.0667306
0000c0 b1 46 25 bd 67 a5 1b 3f 21 44 88 3d ec 53 0b bf
       -0.04035062 0.6079926 0.066536196 -0.5442493
0000d0 08 e0 3e 3e b0 1b 4a be 7e ad 75 3d 61 5b 20 be
       0.18640149 -0.19737124 0.05997991 -0.15659858
0000e0 c0 78 82 be fe ab 03 bf ba 64 83 3f 62 a8 2d 3e
       -0.2548275 -0.51434314 1.0265114 0.16958764
0000f0 55 11 87 be 39 ac ec bd 2d 05 b3 3d cb 15 29 3f
       -0.2638041 -0.11556286 0.087412216 0.6604888

sequential/dense_1/MatMul f4 [3, 16]
000000 ec 5c 49 bf 05 8f 86 bc cf 79 07 bf 81 32 0f 3f
       -0.7865741 -0.016425619 -0.5292024 0.5593644
000010 ae a1 a2 be 88 1c 77 3f c2 1f d4 3d 9c 23 f1 bd
       -0.31763977 0.9652791 0.1035762 -0.1177437
000020 83 7b da 3e 7c e2 71 be 1d 6a e9 be 39 88 9d be
       0.42672357 -0.23621553 -0.4558877 -0.30767992
000030 00 41 12 3d 2c 1d 40 3e 75 e9 4d bf a1 69 f3 be
       0.03570652 0.18761128 -0.8043435 -0.47541526
000040 f6 6e 6d bd d3 48 cd 3e 97 53 f9 bd 33 5e c0 be
       -0.05796715 0.40094623 -0.121741466 -0.37571868
000050 d6 42 bc 3d e1 22 68 be ef fa 5f be 67 86 ca 3e
       0.091924354 -0.22669555 -0.21873067 0.39555666
000060 2c 6c ae be f5 7a 59 be 9b c7 12 3e b6 5b 11 be
       -0.34066904 -0.2123831 0.14333956 -0.14195141
000070 c1 12 c7 3e 8c 5d 91 bd eb 93 00 3e b7 f9 00 bf
       0.38881496 -0.07097921 0.12556426 -0.50381035
000080 44 6d 71 3f 5c 2c 88 be d3 e0 84 3e 04 ee 14 3c
       0.9430735 -0.26596344 0.25952777 0.0090899505
000090 c4 80 a1 3e 9e 0b 9f bf 88 68 c1 3e f5 c3 20 3e
       0.31543553 -1.242542 0.37775064 0.15699752
0000a0 87 e6 b1 3d 04 09 89 be 5e 56 26 3f 3c b4 cf 3f
       0.08686548 -0.2676469 0.64975536 1.6226878
0000b0 15 9c 01 bf 20 0f c0 bd 6e a8 49 3f 0b 5c fd 3e
       -0.5062879 -0.09377885 0.7877263 0.49484286
